…
  inflating: img_align_celeba/img_align_celeba/197628.jpg  
...
  inflating: list_attr_celeba.csv    
  inflating: list_bbox_celeba.csv    
  inflating: list_eval_partition.csv  
  inflating: list_landmarks_align_celeba.csv  
Output is truncated. View as a scrollable element or open in a text editor. Adjust cell output settings...
Mounted at /content/gdrive
Model: "generator"
_________________________________________________________________
 Layer (type)                Output Shape              Param #   
=================================================================
 reshape (Reshape)           (None, 1, 1, 100)         0         
                                                                 
 conv2d_transpose (Conv2DTr  (None, 4, 4, 1024)        1638400   
 anspose)                                                        
                                                                 
 batch_normalization (Batch  (None, 4, 4, 1024)        4096      
 Normalization)                                                  
                                                                 
 re_lu (ReLU)                (None, 4, 4, 1024)        0         
                                                                 
 cnn_block_1 (Sequential)    (None, 8, 8, 512)         13109248  
|¯¯¯¯¯¯¯¯¯¯¯¯¯¯¯¯¯¯¯¯¯¯¯¯¯¯¯¯¯¯¯¯¯¯¯¯¯¯¯¯¯¯¯¯¯¯¯¯¯¯¯¯¯¯¯¯¯¯¯¯¯¯¯|
| conv2d_transpose_1 (Conv2  (None, 8, 8, 512)         13107200 |
| DTranspose)                                                   |
|                                                               |
| batch_normalization_1 (Ba  (None, 8, 8, 512)         2048     |
| tchNormalization)                                             |
|                                                               |
| re_lu_1 (ReLU)             (None, 8, 8, 512)         0        |
¯¯¯¯¯¯¯¯¯¯¯¯¯¯¯¯¯¯¯¯¯¯¯¯¯¯¯¯¯¯¯¯¯¯¯¯¯¯¯¯¯¯¯¯¯¯¯¯¯¯¯¯¯¯¯¯¯¯¯¯¯¯¯¯¯
 cnn_block_2 (Sequential)    (None, 16, 16, 256)       3277824   
...
Total params: 72183818 (275.36 MB)
Trainable params: 72172294 (275.32 MB)
Non-trainable params: 11524 (45.02 KB)
_________________________________________________________________
Output is truncated. View as a scrollable element or open in a text editor. Adjust cell output settings...

Epoch 1/100
792/792 [==============================] - 2457s 3s/step - Cross-Entropy: 0.8894 - E[p(y=real|x=real)]: 0.4924 - E[p(y=fake|x=fake)]: 0.6778 - Historical-Averaging-Penalty: 0.5965
…
